lstm_model/best_two_headed_lstm_32.pth (torch, 57153 bytes, 10 tensors)

lstm.weight_ih_l0 f4 [128, 5]
0	0x3d3d014e	0.046143822
1	0xbd85b8a8	-0.06529361
2	0x3b0f2643	0.0021842874
3	0x3e34ec40	0.17668247
4	0xbd626616	-0.055273138
5	0xbe1ee8e6	-0.15518531
6	0xbe29399c	-0.16525882
7	0xbd2fc739	-0.042914603
8	0xbdad2d2b	-0.08455881
9	0x3e0d9774	0.13827306
10	0x3daefe39	0.08544583
11	0x3d758069	0.059936915
12	0x3e9362dc	0.2878636
13	0x3c0b9ae0	0.008520812
14	0xbdb16373	-0.086615466
15	0x3e315ce7	0.17320596
16	0x3e54168f	0.2071173
17	0xbc12ba8f	-0.008955612
18	0x3ddf12e1	0.10892273
19	0x3e5c6e5e	0.21526477
20	0x3c4ba82a	0.01243023
21	0xbe13f22e	-0.14447853
22	0xbdc343eb	-0.09534439
23	0x3dbdaae2	0.09261109
24	0x3d2d79a7	0.042352345
25	0x3db36fa3	0.087615274
26	0x3e83047f	0.25589368
27	0xbda5fdcd	-0.08105049
28	0x3dc0e212	0.094181195
29	0x3d87a2de	0.06622861
30	0x3e2e78a9	0.17038216
31	0x3e2b961e	0.16756484
32	0x3d85adef	0.06527316
33	0x3e9c8eea	0.30577785
34	0x3e381565	0.17976911
35	0xbe4459a2	-0.19174817
36	0x3d71e327	0.05905452
37	0x3d952650	0.07282698
38	0x3e5dc19a	0.21655884
39	0x3b445364	0.0029956931
40	0xbc958ad3	-0.018254673
41	0x3df9e90e	0.12202655
42	0x3e549073	0.20758228
43	0x3e4ece39	0.20195855
44	0xbca1004c	-0.019653462
45	0x3d06a2be	0.032870047
46	0x3d381fa2	0.044952042
47	0x3e6b9992	0.23007801
48	0x3d269359	0.040667865
49	0x3d9221b1	0.071353324
50	0x3d14046b	0.036137026
51	0x3edfddf3	0.4372402
52	0x3e8e003a	0.27734548
53	0x3e226b8e	0.15861341
54	0x3ecf5064	0.4049102
55	0xbe0f6c37	-0.14006124
56	0x3ca90b8f	0.020635394
57	0x3e8c6849	0.27423313
58	0xbe6c9084	-0.23102003
59	0x3e97eccd	0.29672852
60	0x3d78e081	0.06076098
61	0xbcf3e2da	-0.029771257
62	0x3d566dc0	0.05235076
63	0xbe9b3b3c	-0.3031863
64	0xbd6279b4	-0.055291846
65	0xbd4009c6	-0.04688432
66	0x3ddad2d3	0.10684743
67	0x3d0cd383	0.0343814
68	0xbeb23476	-0.3480565
69	0xbdad7744	-0.08470014
70	0x3d7cec5d	0.06174885
71	0x3e81ae22	0.25328165
72	0x3ce3dd6e	0.027815547
73	0x3e8d5598	0.27604365
74	0x3e606088	0.21911824
75	0x3d62cf27	0.055373337
76	0x3eb615e4	0.35563576
77	0x3eb90251	0.3613458
78	0xbdc437ad	-0.09580932
79	0x3da6344c	0.081154436
80	0x3eda3eb7	0.42625973
81	0x3e27979e	0.16366431
82	0x3ea3dd11	0.32004598
83	0x3dd34d62	0.10317494
84	0x3e577935	0.2104233
85	0xbe0d808b	-0.13818567
86	0x3ead088f	0.33795592
87	0x3d9f11d0	0.07767069
88	0xbdae2a7b	-0.08504196
89	0x3eacc397	0.33742973
90	0xbeaee993	-0.34162578
91	0xbd928350	-0.07153952
92	0xbd3ecdf7	-0.046583142
93	0x3e2a14a3	0.16609435
94	0x3dd561b0	0.10419023
95	0x3d0e70db	0.034775596
96	0x3e82d3c7	0.25552198
97	0x3e7849da	0.24246922
98	0xbd429a0a	-0.047510184
99	0x3f0f87b1	0.56066424
100	0x3e0f764e	0.14009973
101	0x3d0cc976	0.034371816
102	0x3e7a2aef	0.2443044
103	0x3e8d4384	0.27590573
104	0x3e155098	0.14581525
105	0xbe912651	-0.28349546
106	0xbe43a71c	-0.19106716
107	0x3e51b0b9	0.2047757
108	0xbe0de8f0	-0.1385839
109	0xbe1db81f	-0.15402268
110	0xbe576b77	-0.21037088
111	0x3d09140f	0.033466395
112	0x3e81e39c	0.25368965
113	0x3e534596	0.20632014
114	0x3e006414	0.12538177
115	0x3de996bc	0.114057034
116	0xbcec7d23	-0.028868264
117	0x3e245088	0.16046345
118	0x3e1dce8b	0.15410821
119	0x3e38de56	0.18053564
120	0x3d873ab1	0.06602991
121	0x3e52da8c	0.20591182
122	0x3ec06795	0.37579027
123	0x3df054ff	0.11734962
124	0x3ed10f86	0.40832156
125	0xbe3c71cf	-0.1840279
126	0xbd1910f3	-0.03736968
127	0x3cfe46c8	0.03103961
128	0x3e233833	0.15939407
129	0xbc855f82	-0.016280893
130	0xbe9b25f4	-0.30302393
131	0xbe18b74b	-0.1491367
132	0x3e61b1cb	0.22040479
133	0xbea3317a	-0.31873685
134	0x3e19284c	0.14956778
135	0xbe61e559	-0.22060145
136	0xbc4fc15c	-0.012680378
137	0x3cd06a08	0.025441185
138	0x3e377c63	0.17918544
139	0xbd3b02ea	-0.045657076
140	0x3e2e6522	0.17030767
141	0x3e91e1ec	0.28492677
142	0x3ee40423	0.44534406
143	0xbec7dd5f	-0.3903608
144	0x3f1bd672	0.6087409
145	0xbe68c9e5	-0.22733267
146	0xbeec6b28	-0.46175504
147	0xbe2cf458	-0.16890085
148	0x3d5ffb43	0.05468298
149	0x3d6251c8	0.055253774
150	0x3ca66b33	0.020314788
151	0x3d7276ce	0.059195332
152	0x3e5d704e	0.21624872
153	0x3dbb1cf9	0.091363855
154	0x3cd4bf9c	0.025970273
155	0x3ebb7109	0.36609676
156	0x3e7e635a	0.24842587
157	0x3e053e7b	0.13012116
158	0x3df16c2b	0.117882095
159	0x3e23ffac	0.160155
160	0xbdb29fff	-0.08721923
161	0x3e138ef6	0.14410004
162	0xbe064666	-0.13112792
163	0x3d8c12e9	0.06839544
164	0x3df994d5	0.121865906
165	0x3d2a27ff	0.04154205
166	0xbd39f657	-0.045400944
167	0x3c9bccfe	0.019018646
168	0x3e03c5f7	0.12868486
169	0x3e3b9003	0.18316655
170	0x3e1db1d1	0.15399863
171	0xbd7eeece	-0.06223946
172	0x3d565349	0.05232552
173	0x3e64267b	0.22280304
174	0xbe35e04f	-0.17761348
175	0xbe168ffc	-0.14703363
176	0x3dd03d27	0.10167914
177	0x3d42e47a	0.047581173
178	0x3d1a9f1f	0.037749406
179	0xbd5bfe71	-0.05370945
180	0xbd99ab92	-0.075034276
181	0xbe7ab86d	-0.24484415
182	0x3ddfa69a	0.109204486
183	0x3ea16af6	0.31526917
184	0x3e70fa01	0.23532869
185	0xbdbce569	-0.09223444
186	0xbc57973b	-0.013158615
187	0x3b9ecb48	0.0048460104
188	0x3e0adfcf	0.13561939
189	0x3ea4138f	0.32046172
190	0x3dd95d83	0.10613539
191	0x3e0c9cdb	0.1373171
192	0x3e2511a8	0.16120017
193	0x3e9cf67d	0.30656806
194	0x3e27bd96	0.16380915
195	0x3dc37096	0.095429584
196	0xbca049c6	-0.019566428
197	0x3dca9192	0.098910466
198	0x3e468a2e	0.19388649
199	0x3e5a85ea	0.21340147
200	0xbdf3d6fe	-0.11906241
201	0xbdb76d3d	-0.089563824
202	0x3e3fcfbe	0.18731591
203	0x3e5a26ce	0.21303865
204	0x3ba2da93	0.0049699037
205	0x3d19dc95	0.03756388
206	0x3d010100	0.031495094
207	0x3ea337be	0.31878465
208	0x3e9f48f1	0.31110337
209	0xbdfa6c2b	-0.12227663
210	0x3d56469d	0.052313436
211	0x3d89c1e0	0.06726432
212	0x3e4d2548	0.20033753
213	0x3da35aa0	0.0797627
214	0xbc99e0e7	-0.018784
215	0xbe1051da	-0.14093724
216	0x3da17b53	0.0788485
217	0xbc1514d2	-0.009099202
218	0xbdc34531	-0.095346816
219	0xbcd86976	-0.026417475
220	0xbd8894b4	-0.06668988
221	0xbd5f6f7e	-0.054549687
222	0xbe1d0032	-0.15332106
223	0xbec900bf	-0.39258382
224	0x3d5ae986	0.05344536
225	0x3d90dd0d	0.07073412
226	0xbd185334	-0.037188724
227	0xbe210272	-0.15723589
228	0xbed780fa	-0.4209059
229	0xbe377785	-0.17916687
230	0xbd8d4cbe	-0.06899403
231	0xbde98da4	-0.11403969
232	0x3c5471da	0.012966597
233	0x3e4eff6e	0.20214626
234	0x3e0f8a48	0.14017594
235	0x3e9c9841	0.3058491
236	0x3da4b916	0.08043115
237	0x3e8380d8	0.25684237
238	0xbd33226e	-0.043734007
239	0x3d5d5c56	0.054043137
240	0x3d14eb3d	0.036357153
241	0xbd316ea0	-0.04331839
242	0x3d64da1c	0.055872068
243	0x3e443c73	0.19163685
244	0xbdabae0c	-0.08382806
245	0x3d1e4d19	0.038647745
246	0x3dd2fbc9	0.103019305
247	0x3d432321	0.047640923
248	0xbda3d000	-0.07998657
249	0x3e5d6477	0.21620356
250	0xbee4dcf6	-0.4469983
251	0xbe9003a8	-0.2812779
252	0xbe43219a	-0.19055787
253	0x3cdf2960	0.027241409
254	0xbc29ea07	-0.010370738
255	0xbdc2d213	-0.09512725

lstm.weight_hh_l0 f4 [128, 32]
0	0x3d8b8e67	0.068142705
1	0x3d1b4f2d	0.037917305
2	0xbdc2a2b2	-0.09503688
3	0xbb72af2c	-0.003703068
4	0x3d25cebb	0.040480357
5	0x3dfacd5c	0.122462004
6	0xbdb8dfb9	-0.09027047
7	0xbcd3d711	-0.025859388
8	0xbe00c573	-0.12575321
9	0xbd84fe95	-0.0649387
10	0x3e2318a1	0.15927364
11	0xbdae64f8	-0.08515352
12	0x3d801119	0.06253261
13	0xbaa2f67e	-0.001243308
14	0xbdf0a27c	-0.117497414
15	0x3d1cc2f8	0.038271874
16	0x3da030ce	0.07821809
17	0xbdf590b2	-0.11990489
18	0xbd29e7f6	-0.04148098
19	0xbddccdf7	-0.10781472
20	0xbd83fbab	-0.06444486
21	0x3d2b363a	0.04179976
22	0x3e29a511	0.16566874
23	0xbe3f0ccc	-0.18657225
24	0x3d036500	0.032078743
25	0xbdbe7631	-0.09299887
26	0x3cb13a86	0.021634351
27	0xbd61c819	-0.05512247
28	0xbd5f8f4d	-0.05458002
29	0x3d2673ae	0.040637664
30	0x3c4c7e29	0.012481251
31	0xbd19b48c	-0.0375257
32	0xbe3125d5	-0.17299588
33	0xbd5202bf	-0.05127215
34	0xbda18899	-0.07887382
35	0xbd9b3fd3	-0.07580533
36	0xbe27bba8	-0.16380179
37	0x3c5e81e9	0.013580778
38	0xbe271335	-0.1631592
39	0xbdab4258	-0.083622634
40	0xbe1be1f3	-0.15222912
41	0xbdf71e40	-0.120663166
42	0xbe2cf650	-0.16890836
43	0xbd8b868e	-0.06812774
44	0x3db31a11	0.08745206
45	0xbe84649d	-0.25858012
46	0x3c428fce	0.011875106
47	0x3c7cec7b	0.015437241
48	0xbc179558	-0.009251915
49	0x3e2c834c	0.16846961
50	0xbe069ebe	-0.13146493
51	0xbcbbbcdd	-0.022917205
52	0x3d988f94	0.0744926
53	0xbdcfb6ce	-0.10142289
54	0xbe25ec4e	-0.16203424
55	0x3e060f3f	0.13091753
56	0x3e40377b	0.18771164
57	0x3cb30f9e	0.021858033
58	0x3defd608	0.11710745
59	0xbe13458c	-0.14381999
60	0x3e19ac81	0.15007211
61	0xbe00c5d9	-0.12575473
62	0x3dcc0123	0.09961154
63	0x3bb221f2	0.0054361755
64	0xbd53c1bf	-0.051698443
65	0x3e067af7	0.13132845
66	0xbc28e690	-0.010308877
67	0xbe1de042	-0.15417579
68	0x3dedee88	0.11617762
69	0xbd88c96b	-0.066790424
70	0xbdd15e3b	-0.10223051
71	0x3ce68c36	0.02814303
72	0x3e376e59	0.17913188
73	0x3d234cf7	0.03986832
74	0xbd6806e3	-0.056647193
75	0x3e105395	0.14094384
76	0x3e77a208	0.24182904
77	0x3cc0cd87	0.023535503
78	0x3ddea00d	0.10870371
79	0x3e65bf3a	0.22436228
80	0xbe86df03	-0.2634202
81	0xbdb0fa05	-0.086414374
82	0xbdb4133a	-0.0879273
83	0x3df9285a	0.121658996
84	0xbd814f7d	-0.06313989
85	0xbb9c5242	-0.004770548
86	0x3ca32da1	0.019919218
87	0x3d9aced0	0.075589776
88	0x3ce6763f	0.028132556
89	0xbd947128	-0.07248145
90	0xbd1e8d75	-0.038709123
91	0x3e362efd	0.17791362
92	0xbe2a4326	-0.16627178
93	0x3e19844f	0.14991878
94	0x3cae37d9	0.021266865
95	0x3c0cb3af	0.008587762
96	0x3dde6e7b	0.10860916
97	0x3d748bdb	0.05970369
98	0xbc265eac	-0.0101544075
99	0xbd83f6a7	-0.064435296
100	0xbe279175	-0.16364081
101	0x3c920d0a	0.017828483
102	0xbd96e236	-0.07367365
103	0x3d84629b	0.0646412
104	0x3c45ebbb	0.012080128
105	0x3cd1e81b	0.025623372
106	0x3da9fd5b	0.08300277
107	0xbd8c359c	-0.06846163
108	0xbe47ea85	-0.19523056
109	0x3df1de17	0.118099384
110	0x3e444184	0.19165617
111	0x3c64a275	0.013954748
112	0x3ba63461	0.005072162
113	0x3da36011	0.079773076
114	0x3de32972	0.110918894
115	0xbe42cc09	-0.19023146
116	0x3ccc04d7	0.024904652
117	0x3de38824	0.11109951
118	0x3e8a72cb	0.27040705
119	0xbe8d65ef	-0.27616832
120	0xbd49293c	-0.04911159
121	0x3dc0724b	0.093968
122	0xbc552aa5	-0.0130106555
123	0xbd4d2413	-0.05008323
124	0x3e48be46	0.19603834
125	0xbd9d241b	-0.07672902
126	0x3e8f475d	0.27984133
127	0x3e8d3936	0.2758271
128	0x3c9278e2	0.017879907
129	0x3c9e7a00	0.019345284
130	0xbe3c13ba	-0.183669
131	0x3e0a0c21	0.1348119
132	0xbe1b15b2	-0.15144995
133	0xbddf03cb	-0.10889395
134	0x3d32cf36	0.043654643
135	0x3e3e3cd4	0.18577892
136	0xbe26a974	-0.16275579
137	0xbdc57230	-0.0964092
138	0x3e4c2234	0.19934922
139	0xbde74fbf	-0.11294507
140	0x3df0486b	0.11732563
141	0xbe01902a	-0.1265265
142	0x3e6b3fec	0.22973603
143	0xbe235382	-0.15949824
144	0x3d1fbe03	0.03899957
145	0xbb8c25b1	-0.004276954
146	0xbe0d0a6f	-0.13773511
147	0xbce9aed0	-0.02852574
148	0xbe074c33	-0.13212661
149	0x3e45aff4	0.19305402
150	0x3e2fdd57	0.17174278
151	0xbe22232e	-0.15833732
152	0x3da5accf	0.08089601
153	0x3dfccaac	0.12343344
154	0xbdd00cc5	-0.101586856
155	0xbc9c236a	-0.019059855
156	0x3ddc80d9	0.10766763
157	0xbe33a96f	-0.17545103
158	0x3a92b32f	0.0011192317
159	0x3e275301	0.16340257
160	0xbe1af182	-0.1513119
161	0xbd14ddba	-0.036344267
162	0x3e27f2b0	0.16401172
163	0x3d3d2474	0.046177343
164	0x3e2539d0	0.16135335
165	0x3d8c08db	0.068376265
166	0x3df72d56	0.12069194
167	0x3e214dcd	0.15752335
168	0x3ba791ad	0.0051138015
169	0xbdcc0709	-0.09962279
170	0x3db4c5ee	0.088268146
171	0xbcfa48b4	-0.030552246
172	0xbaae49b7	-0.0013297115
173	0x3ce5f985	0.028073082
174	0x3e1f5fb0	0.15563846
175	0x3e6cb4eb	0.2311589
176	0x3e09d5f8	0.13460529
177	0xbdab8b3e	-0.08376168
178	0x3e2c79cf	0.16843341
179	0xbdcc1df1	-0.09966648
180	0xbd9ae16f	-0.07562529
181	0x3e130f50	0.1436131
182	0xbd95472a	-0.07288964
183	0xbe1f7147	-0.15570556
184	0x3cc362b9	0.023850786
185	0x3af08555	0.0018350283
186	0xbce42b16	-0.027852576
187	0x3e2ca0be	0.16858193
188	0x3d9835c6	0.074321315
189	0x3d6c44ec	0.057682917
190	0xbe05c6b0	-0.13064075
191	0xbd89d3ac	-0.06729826
192	0x3dde2279	0.10846419
193	0xbd9d5003	-0.07681277
194	0x3e176f7f	0.14788626
195	0xbe19b677	-0.15011011
196	0xbdf3258c	-0.11872396
197	0x3dae34d8	0.08506173
198	0x3ba9cbaf	0.0051817517
199	0x3e0ad9f6	0.13559708
200	0x3e1251fa	0.14289084
201	0xbda6af56	-0.081389114
202	0x3d8cc4b5	0.068734564
203	0x3d2b96e5	0.04189195
204	0x3df7162f	0.12064778
205	0xbe161be4	-0.14659077
206	0xbdd1f804	-0.10252383
207	0xbd5b1494	-0.05348642
208	0x3aeef62c	0.0018231324
209	0x3df9b88f	0.12193405
210	0xbd63393e	-0.055474512
211	0x3de4c23b	0.11169859
212	0xbd33ab50	-0.04386455
213	0xbd67567c	-0.056478962
214	0xbbf6268a	-0.0075119184
215	0x3d61c0aa	0.05511538
216	0x3da4d2a9	0.08047993
217	0x3dc5bc2a	0.0965503
218	0x3bc8a113	0.006122717
219	0xbe25b80a	-0.16183487
220	0xbe0f6b14	-0.14005691
221	0x3e2aa2fc	0.16663736
222	0x3d43ad1a	0.047772504
223	0x3d9af64a	0.07566507
224	0x3d7f5389	0.062335525
225	0x3ddb9281	0.10721303
226	0xbd48b6b3	-0.04900236
227	0x3e1f5001	0.15557863
228	0xbe4ecb4f	-0.20194744
229	0xbd2a54e1	-0.041584853
230	0x3d9c60b7	0.076356344
231	0xbccdc24d	-0.025117064
232	0xbe157718	-0.14596212
233	0xbe109e9b	-0.14123003
234	0xbdd3fe4e	-0.10351239
235	0x3d5eec67	0.05442467
236	0xbdd300c3	-0.1030288
237	0x3e397607	0.1811143
238	0xbdf68b13	-0.12038245
239	0x3c3b76de	0.011441914
240	0xbd5379e7	-0.051629927
241	0xbd4b2a95	-0.049601156
242	0xbdde7919	-0.10862941
243	0xbde06411	-0.10956586
244	0x3da41766	0.080122754
245	0xbd015370	-0.031573713
246	0xbdeadaf1	-0.11467541
247	0xbe211ada	-0.157329
248	0x3e31cc68	0.17363131
249	0x3deab5bf	0.114604466
250	0xba025c1b	-0.0004972831
251	0xbe38ca26	-0.18045864
252	0x3df5b189	0.11996753
253	0x3d0d78f2	0.03453917
254	0xbcdf1ba6	-0.027234863
255	0x3df10342	0.117681995

lstm.bias_ih_l0 f4 [128]
0	0x3e0ce6f6	0.1375998
1	0x3dfb2646	0.122631595
2	0x3daab4e2	0.08335282
3	0x3d5a2e50	0.053266823
4	0x3e199d9b	0.15001528
5	0x3d1313ee	0.03590768
6	0xbd0d5d90	-0.034513056
7	0x3d941fdc	0.07232639
8	0x3c0a6144	0.0084460415
9	0x3e2253ae	0.15852234
10	0x3d6032d3	0.05473597
11	0xbd85fb10	-0.06542027
12	0xbdc1f73c	-0.09470984
13	0x3dcfbf91	0.1014396
14	0x3cfa80a2	0.030578915
15	0x3e6e0225	0.23243006
16	0x3e435f90	0.19079423
17	0x3e12d06a	0.14337316
18	0x3e14d0a4	0.14532715
19	0x3e3a2de3	0.18181567
20	0x3e503007	0.20330821
21	0xbdaee258	-0.085392654
22	0x3acdadaf	0.001569202
23	0x3e3f0b49	0.18656649
24	0x3e8f6e74	0.28013957
25	0xbd6710c3	-0.05641247
26	0x3d498d54	0.049207047
27	0x3d38eebd	0.045149554
28	0x3e1bc997	0.15213619
29	0x3d9fabe5	0.07796458
30	0x3e47dd04	0.19517905
31	0x3d231fda	0.039825298
32	0xbe0495d2	-0.12947777
33	0x3e162796	0.14663538
34	0xbd4619b0	-0.04836434
35	0xbdd0fb9a	-0.10204239
36	0x3e427866	0.18991241
37	0xbd63d4a2	-0.055622704
38	0x3dab61e5	0.08368281
39	0x3dbdf46f	0.09275138
40	0x3ca3fbcf	0.020017533
41	0x3b16e924	0.0023027146
42	0x3d7020ab	0.058624905
43	0x3db9b1ce	0.09067117
44	0x3daf0862	0.08546521
45	0x3e464610	0.19362664
46	0xbda25126	-0.07925634
47	0x3e0e1ba3	0.1387773
48	0xbccf9125	-0.025337765
49	0xbdaabff6	-0.08337395
50	0x3db304e7	0.087411694
51	0x3e29f6e2	0.16598085
52	0x3d2095e1	0.039205436
53	0xbd23ba97	-0.039972868
54	0x3e48af1d	0.1959805
55	0x3dbf3bc7	0.093375735
56	0x3e1ff1af	0.15619539
57	0xbd1907c5	-0.037360925
58	0x3e8cad7c	0.27476108
59	0xbd81559b	-0.06315156
60	0xbd392e95	-0.04521044
61	0x3e159031	0.14605786
62	0xbdcab195	-0.09897152
63	0x3e2e20dd	0.17004724
64	0x3e47ebb0	0.19523501
65	0xbe31ec5b	-0.17375319
66	0xbd16b8fa	-0.0367975
67	0x3d88f44d	0.06687222
68	0x3bef652f	0.007305763
69	0xbdbda08e	-0.09259139
70	0x3e087384	0.13325316
71	0x3e15017a	0.14551345
72	0xbe2b5c0c	-0.16734332
73	0x3cc0566d	0.023478711
74	0xbc77e98f	-0.015131368
75	0xbded51d7	-0.11587875
76	0x3ccc9741	0.024974467
77	0xbdd06118	-0.10174769
78	0x3a55e900	0.0008160025
79	0xbe345e24	-0.17614037
80	0x3dffba6c	0.12486729
81	0xbdedf2d5	-0.11618582
82	0xbd24497d	-0.040109146
83	0x3dd38bcb	0.10329398
84	0xbd84d63e	-0.06486176
85	0x3de8b958	0.113634765
86	0x3da5b1d3	0.08090558
87	0xbbec83d0	-0.0072178617
88	0xbd3f6863	-0.04673041
89	0x3e3046af	0.17214464
90	0xbcac495a	-0.02103107
91	0xbd0ec147	-0.034852292
92	0x3e03c65f	0.12868641
93	0xbd7b2d42	-0.061322458
94	0xbe08f8bc	-0.13376135
95	0xbe0cec8f	-0.13762115
96	0x3ce395a4	0.027781315
97	0x3d42263c	0.047399744
98	0xbe4fde61	-0.20299675
99	0x3e102c33	0.1407936
100	0xbcfe0630	-0.03100881
101	0x3d905226	0.070469186
102	0x3e0d437a	0.13795272
103	0x3e0cb468	0.13740695
104	0xbdc76bab	-0.09737333
105	0x3d932f77	0.071867876
106	0x3dc56256	0.09637897
107	0x3e57f06f	0.21087812
108	0x3e673cec	0.22581834
109	0x3e8db373	0.2767597
110	0x3e1fc53f	0.15602587
111	0x3e24bae9	0.16086926
112	0x3e7f521f	0.2493367
113	0xbd15803f	-0.036499258
114	0xbda6e16a	-0.08148463
115	0x3eaa50d2	0.33264786
116	0x3d89ca8b	0.06728085
117	0xbdd9ab8d	-0.10628424
118	0xbc5b2ec2	-0.013377847
119	0x3c899a75	0.016797284
120	0x3e1d4935	0.15359958
121	0x3e0f185a	0.13974133
122	0x3cddde3f	0.027083514
123	0x3cf79245	0.030221114
124	0x3e90de41	0.28294566
125	0x3e5d2e7c	0.21599764
126	0x3e011f64	0.12609631
127	0xbbe97942	-0.0071250508

lstm.bias_hh_l0 f4 [128]
0	0x3d9adf1a	0.075620845
1	0x3e290874	0.16507131
2	0x3c6c8e8a	0.014438281
3	0x3d812e67	0.06307679
4	0xbdf61370	-0.12015426
5	0xbc2f1207	-0.01068545
6	0xbdc9f15b	-0.09860488
7	0xbe2d87d7	-0.1694635
8	0x3e3202af	0.17383836
9	0x3e328fc7	0.17437659
10	0x3d9fda1b	0.07805272
11	0xbd17d8dd	-0.03707205
12	0x3e413067	0.1886612
13	0x3e41f4bd	0.18941016
14	0x3e333718	0.17501485
15	0x3c5d73ca	0.013516376
16	0x3e80d856	0.2516505
17	0x3cb6281a	0.022235919
18	0x3c7616c0	0.015020072
19	0x3df91564	0.12162283
20	0x3d49b862	0.049248107
21	0x3cd1648a	0.025560636
22	0x3dd5abac	0.104331344
23	0x3e66d156	0.22540793
24	0x3e3b30fe	0.18280408
25	0x3d6b06e7	0.05737963
26	0x3e91c120	0.28467655
27	0xbdc279d1	-0.09495891
28	0x3da6c3f2	0.08142842
29	0x3e6289d1	0.22122885
30	0x3e2dad74	0.16960698
31	0x3e73325d	0.23749681
32	0x3d4ed36d	0.0504946
33	0xbe117703	-0.14205556
34	0xbb6a3b2f	-0.0035740843
35	0xbe439437	-0.19099508
36	0x3e332fc8	0.17498696
37	0xbe008b15	-0.12553056
38	0xbe12e938	-0.14346778
39	0x3db178be	0.08665608
40	0x3d74d96d	0.059777666
41	0x3e5e6081	0.21716501
42	0xbdbbb088	-0.0916453
43	0xbd62beb4	-0.05535765
44	0xbd1396be	-0.03603243
45	0x3d8c7d15	0.06859795
46	0xbc9ffc45	-0.019529471
47	0xbddc5d45	-0.10759977
48	0xbdfff1e9	-0.124973126
49	0x3d46b2d3	0.048510384
50	0x3e380fa7	0.17974721
51	0xbdd7d0a5	-0.10537843
52	0x3e58efe0	0.21185255
53	0x3d14d41e	0.036335103
54	0x3e16e53b	0.14735882
55	0xbd9acb6b	-0.0755833
56	0xbda6ab59	-0.08138151
57	0x3d0b244e	0.03397017
58	0x3dc42de5	0.09579066
59	0x3dbc09be	0.09181546
60	0x3bb61dc3	0.005557747
61	0x3e00b4cf	0.12568973
62	0x3e4add57	0.19810997
63	0x3e5e5120	0.21710634
64	0x3d2d657e	0.04233312
65	0xbe1ba61d	-0.15200086
66	0xbe099148	-0.13434327
67	0xbbad1953	-0.00528256
68	0xbdfc71f9	-0.12326426
69	0xbd99b9df	-0.07506155
70	0xbe3b639d	-0.18299718
71	0x3e03add7	0.12859283
72	0x3dd8c382	0.10584165
73	0x3e0066ec	0.12539262
74	0xbdb3480f	-0.087539785
75	0x3dd5a2d6	0.10431449
76	0xbe5ed57b	-0.21761124
77	0x3d89af07	0.06722837
78	0xbda2118f	-0.07913505
79	0xbb4d1131	-0.0031290764
80	0xbad2b31f	-0.0016075111
81	0x3dc9940c	0.09842691
82	0xbe5a05da	-0.21291295
83	0xbddb2b61	-0.10701633
84	0x3e1ff1e4	0.15619618
85	0x3c49e882	0.012323501
86	0xbdd62b88	-0.10457522
87	0x3c8c0d05	0.017096052
88	0x3cfaebf9	0.030630099
89	0x3e05fa1e	0.13083693
90	0xbd9289aa	-0.071551636
91	0xbe2a09d2	-0.16605309
92	0x3dde6098	0.108582675
93	0xbd0c7e13	-0.03429992
94	0x3b7b1c7b	0.0038316536
95	0xbc8290ef	-0.01593825
96	0xbd6add33	-0.05733986
97	0xbd545dcd	-0.051847268
98	0xbe4c6a7c	-0.19962496
99	0x3c98f7ab	0.018672785
100	0xbde745b5	-0.112925924
101	0xbc0917ee	-0.008367522
102	0x3dc80d6e	0.097681865
103	0x3db70da5	0.08938149
104	0x3da8b6ea	0.08238013
105	0x3e2849db	0.16434424
106	0x3e46c9f4	0.19412977
107	0xbda10cb7	-0.07863753
108	0x3e63a948	0.22232544
109	0x3e288312	0.1645625
110	0x3db10767	0.0864399
111	0x3dc36451	0.09540618
112	0x3d9f214f	0.07770025
113	0x3e896fdd	0.26843157
114	0x3df7c4f1	0.120981105
115	0x3e855338	0.26040053
116	0xbd95fcf9	-0.07323641
117	0xbdbd77d0	-0.09251368
118	0x3d583b47	0.052790906
119	0xbcec6243	-0.028855449
120	0x3e9441af	0.28956363
121	0x3dfb0ed4	0.122586876
122	0x3e8f1408	0.2794497
123	0x3e1d34ea	0.15352216
124	0x3e91bad8	0.28462863
125	0x3db52a7b	0.08845993
126	0x3eaafa45	0.33394065
127	0x3e5ba979	0.21451367

lstm.weight_ih_l1 f4 [128, 32]
0	0x3ea43ea1	0.32079032
1	0xbe53c832	-0.20681837
2	0xbe8876eb	-0.26653227
3	0x3df99132	0.12185897
4	0xbd8a5b46	-0.0675569
5	0xbebbeec7	-0.3670561
6	0xbca2a75e	-0.019855198
7	0x3e728391	0.23683001
8	0xbe79653f	-0.24355029
9	0x3dbbdb1a	0.0917265
10	0xbebe924d	-0.37220994
11	0xbdcf0454	-0.101082474
12	0xbe6fbe53	-0.23412447
13	0x3e7c8388	0.2465955
14	0x3df4c024	0.119507104
15	0xbed0db1b	-0.40792164
16	0x3c71e829	0.014764824
17	0xbd4b8d54	-0.049695328
18	0xbe1204a5	-0.14259584
19	0xbe0990b3	-0.13434105
20	0x3e1a5150	0.15070081
21	0x3e879dca	0.2648757
22	0x3e1af59e	0.15132758
23	0x3d221aac	0.039576218
24	0x3d3db01f	0.04631054
25	0x3e6962d6	0.22791609
26	0xbe10c325	-0.14136942
27	0xbe6feb26	-0.23429546
28	0x3ed31994	0.41230452
29	0xbe1aed8b	-0.15129678
30	0xbe1a4516	-0.15065417
31	0x3d80c26a	0.062870815
32	0xbcba291d	-0.022724682
33	0xbe5be6fc	-0.21474832
34	0x3c58d218	0.013233684
35	0xbc4d0e83	-0.012515667
36	0xbd70338d	-0.058642913
37	0x3d03b5ad	0.03215568
38	0x3e00c377	0.12574564
39	0x3e1344fa	0.14381781
40	0x3c84b486	0.016199362
41	0x3e047a0d	0.12937184
42	0x3e7fe0d4	0.24988109
43	0xbdd3ca58	-0.103413284
44	0xbdf73024	-0.12069729
45	0x3d767744	0.060172334
46	0xbcbf35b2	-0.023341034
47	0xbe06af89	-0.13152899
48	0xbe3589e7	-0.17728387
49	0xbe05a26b	-0.13050239
50	0xbe443c5f	-0.19163655
51	0xbe08c9ac	-0.13358182
52	0xba9e62a8	-0.0012083845
53	0x3e81a949	0.25324467
54	0x3e3570a6	0.17718753
55	0xbdd081ed	-0.101810314
56	0x3d9ebded	0.07751069
57	0xbbdb1329	-0.0066856337
58	0x3ce07a63	0.027402109
59	0xbe270533	-0.16310577
60	0xbd471962	-0.04860819
61	0x3d34eb1e	0.044169538
62	0x3df3bc94	0.11901203
63	0x3d89ea31	0.067341216
64	0xbd7f62d7	-0.06235012
65	0x3d92eb53	0.07173791
66	0x3d83e663	0.06440427
67	0x3c5c6abd	0.013453183
68	0x3dd34ab0	0.1031698
69	0xbdb6c11b	-0.08923551
70	0x3e1779b6	0.14792523
71	0x3d22e3d7	0.039768066
72	0xbb387ed0	-0.0028151758
73	0xbe08eb4f	-0.13371013
74	0x3db7aaed	0.089681484
75	0x3d4457b0	0.047935188
76	0xbde70204	-0.11279681
77	0xbea667d8	-0.32501101
78	0x3d85422f	0.06506764
79	0x3cd7a760	0.026324928
80	0xbd7dc73e	-0.06195759
81	0x3e12cba9	0.14335503
82	0x3d8e7264	0.06955412
83	0xbdd817e9	-0.105514355
84	0xbdcb99ee	-0.09941469
85	0xbd724272	-0.0591454
86	0x3ddf45c8	0.109019816
87	0xbdf2fd8c	-0.118647665
88	0x3e56684b	0.20938222
89	0xbd5efc8a	-0.05444006
90	0xbe87777a	-0.2645834
91	0xbcdd3e62	-0.027007286
92	0x3c34c5b9	0.011033469
93	0xbe7396fd	-0.23788066
94	0xbd81ea75	-0.06343547
95	0x3e2c2560	0.16811132
96	0x3edcd6dd	0.43132678
97	0xbe07fbc4	-0.13279635
98	0xbee77e23	-0.45213422
99	0x3dae4b56	0.08510463
100	0xbe9f7dd5	-0.3115069
101	0xbe54453c	-0.20729536
102	0x3e73ce7a	0.23809233
103	0x3eb38801	0.350647
104	0xbe9ca617	-0.30595466
105	0x3f2ffa3c	0.687412
106	0xbe77efe2	-0.24212602
107	0xbe1ff068	-0.15619051
108	0xbeebb038	-0.46032882
109	0x3eea50a8	0.4576466
110	0x3e508d36	0.20366368
111	0xbf0a1ee6	-0.539534
112	0x3d696827	0.056984093
113	0xbe245518	-0.16048086
114	0xbeca94c8	-0.39566636
115	0x3e99a7ee	0.30010933
116	0x3d98f748	0.0746904
117	0x3e1c22a3	0.15247588
118	0x3e65bcac	0.22435254
119	0xbe2a57e7	-0.16635095
120	0x3cfc4321	0.030793728
121	0x3f23c146	0.63966787
122	0xbd3a83e5	-0.04553594
123	0xbebf73a5	-0.37392917
124	0x3ee8fde2	0.45506197
125	0xbf14a862	-0.5806943
126	0xbe9fc4ca	-0.31204826
127	0x3c5e3d48	0.013564415
128	0x3d4ed1c9	0.050493035
129	0xbe4a2c3a	-0.19743434
130	0x3dc26548	0.09491974
131	0x3e15c43a	0.14625636
132	0xbe3afa38	-0.18259513
133	0xbe29d4e9	-0.16585125
134	0x3e1cf83e	0.15329072
135	0x3ddbc0b5	0.10730115
136	0xbbd8a042	-0.006610901
137	0xbd562fe7	-0.052291777
138	0x3d96c77b	0.07362267
139	0xbdaa8ebc	-0.08328006
140	0xbdce8d8a	-0.1008559
141	0xbdc47a17	-0.09593599
142	0xbd3377a2	-0.043815263
143	0xbddccd91	-0.10781396
144	0xbd98460b	-0.07435235
145	0x3d129c4a	0.03579358
146	0xbdc06a8d	-0.09395323
147	0xbd912a3b	-0.07088133
148	0x3dfe3847	0.12413078
149	0xb9fd19a6	-0.0004827503
150	0x3e450308	0.19239438
151	0xbe051ad3	-0.12998514
152	0x3e1d86dd	0.15383478
153	0x3e2c405f	0.1682143
154	0xbe0b0522	-0.13576177
155	0xbd4abb7d	-0.04949521
156	0x3e3f2d70	0.18669677
157	0x3d2be055	0.041961987
158	0x3d0207c2	0.03174568
159	0x3e0393c4	0.12849337
160	0xbbbf581f	-0.0058393623
161	0xbe261ca0	-0.16221857
162	0x3dbbaceb	0.09163841
163	0xbdcb43d7	-0.09925049
164	0xbdc86370	-0.09784591
165	0x3c4ee4e9	0.012627819
166	0x3d4617f1	0.048362676
167	0x3db63b71	0.08898056
168	0xbe0e5b15	-0.13901933
169	0x3cfb2fff	0.030662535
170	0x3dac845e	0.084236845
171	0x3db87659	0.09006948
172	0x3d9a481a	0.075332835
173	0xbe878874	-0.26471293
174	0x3e1c530b	0.15266053
175	0x3e0bc653	0.13649873
176	0xbcec29be	-0.028828498
177	0xbc1052ab	-0.008808772
178	0x3c34b23c	0.0110288225
179	0xbddaae9a	-0.10677834
180	0xbe1ed4ea	-0.15510908
181	0xbb9389d4	-0.0045025144
182	0x3d02a989	0.031899963
183	0xbe7a7866	-0.24459991
184	0x3d4e109f	0.05030882
185	0xbd9e4e86	-0.07729821
186	0xbe31f65d	-0.17379136
187	0xbd869aad	-0.06572471
188	0xbdd93341	-0.10605479
189	0x3e03594c	0.12827033
190	0x3ca2b4a9	0.019861536
191	0x3d1a243e	0.03763222
192	0x3d905d6b	0.07049068
193	0x3e0581a4	0.13037735
194	0xbc6d7579	-0.01449334
195	0xbda7711f	-0.08175873
196	0xbd4d12f3	-0.0500669
197	0xbdc3cb95	-0.095603146
198	0xbca7b0c7	-0.020470036
199	0x3e4a429e	0.19751975
200	0x3dda7a96	0.10667913
201	0x3debce09	0.115139075
202	0x3dc7c676	0.0975465
203	0xbd1971bd	-0.037461985
204	0xbba2371b	-0.0049504167
205	0xbdba08ce	-0.090837106
206	0x3d9e7188	0.07736498
207	0x3cdc5923	0.026897972
208	0xbe27a506	-0.16371545
209	0xbc50be17	-0.012740633
210	0xbe2e4e4f	-0.1702206
211	0xbce4478a	-0.027866144
212	0xbe6d731b	-0.2318844
213	0xbddcfa06	-0.10789876
214	0x3da8c516	0.08240716
215	0xbdca7169	-0.098849125
216	0xbd70e0af	-0.058808025
217	0xbd94188f	-0.07231247
218	0x3e321529	0.17390884
219	0xbe265a0e	-0.1624529
220	0xbde76c58	-0.11299962
221	0xbd7e7561	-0.06212366
222	0xbd94ad24	-0.072595865
223	0x3e55ca24	0.20877892
224	0x3e443a4d	0.19162865
225	0xbd9b6f69	-0.07589609
226	0xbd9b3d6f	-0.07580077
227	0x3e1d9002	0.15386966
228	0xbd8f5765	-0.06999091
229	0x3cf4ff61	0.02990693
230	0x3e4f0610	0.20217156
231	0x3e797ff3	0.24365215
232	0x3ca06afe	0.019582268
233	0xbd26da17	-0.04073533
234	0x3d6d9f1a	0.05801306
235	0xbddb0dfb	-0.10696026
236	0xbdc68358	-0.096930206
237	0xbe25a596	-0.16176447
238	0x3e286f62	0.16448739
239	0xbd9bf0f3	-0.07614317
240	0xbe6846b3	-0.2268322
241	0xbe0aa225	-0.13538416
242	0xbd9e3811	-0.077255376
243	0xbd606518	-0.05478391
244	0x3d81e4c5	0.063424625
245	0x3d97a873	0.07405176
246	0x3e6e7410	0.23286462
247	0xbe3b2a4f	-0.18277858
248	0x3da880c6	0.082276866
249	0x3df0b572	0.11753358
250	0x3cb28caf	0.021795599
251	0x3dd40c62	0.10353924
252	0x3c991cf7	0.01869057
253	0xbb11696f	-0.0022188087
254	0xbd149a50	-0.036279976
255	0x3e3ea5fc	0.18618006

lstm.weight_hh_l1 f4 [128, 32]
0	0x3db9e72b	0.09077295
1	0xbc48cb66	-0.012255525
2	0xbe84f001	-0.25964358
3	0xbee50f0a	-0.44738036
4	0x3d821101	0.063508995
5	0xbe3f8137	-0.18701635
6	0x3ea58316	0.32326573
7	0x3d73f7b4	0.0595624
8	0x3e7c4d53	0.24638872
9	0xbe12faec	-0.14353532
10	0xbe97ff79	-0.29687098
11	0xbda7a235	-0.081852354
12	0x3dd43237	0.1036114
13	0xbd7987ed	-0.060920645
14	0xbd38ce58	-0.04511866
15	0xbe0acf74	-0.135557
16	0x3e8264e0	0.25467587
17	0x3e065ebe	0.13122079
18	0xbe47aace	-0.1949875
19	0x3d86f854	0.065903336
20	0xbd999714	-0.07499519
21	0x3e301bac	0.17198056
22	0x3ec2ccad	0.3804678
23	0xbc78bac1	-0.015181244
24	0xbe6953ec	-0.2278592
25	0x3e9de2ae	0.30837005
26	0xbdd16583	-0.1022444
27	0x3bd95bae	0.0066332435
28	0xbebfd989	-0.37470654
29	0x3ece475b	0.40288815
30	0x3e316ca7	0.17326604
31	0x3ea48e27	0.32139704
32	0x3cd047c7	0.025424851
33	0xbe017dd1	-0.12645651
34	0xbe7f8600	-0.2495346
35	0x3e551370	0.20808196
36	0x3c6958df	0.01424238
37	0xbe792a73	-0.243326
38	0xbdbb91ff	-0.09158706
39	0xbdafbe50	-0.08581221
40	0x3d56c0aa	0.052429833
41	0xbe628bdc	-0.22123665
42	0xbde51007	-0.111846976
43	0xbdb9156f	-0.09037291
44	0xbe6e0942	-0.23245719
45	0xbe88a283	-0.26686487
46	0xbd75fe9b	-0.060057264
47	0x3d3262d6	0.04355129
48	0x3e1ebdc2	0.15502074
49	0xbdea9e6d	-0.114559986
50	0xbe3f41ea	-0.18677488
51	0x3e7856a5	0.24251802
52	0xbdf084fc	-0.11744115
53	0x3d6c8d8e	0.057752185
54	0xbe16fd51	-0.1474507
55	0xbc88287f	-0.016620873
56	0xbe60a876	-0.21939263
57	0x3e7625f8	0.24037921
58	0x3e530e4c	0.20610923
59	0x3e7a0939	0.2441758
60	0xbdf086af	-0.11744439
61	0xbdaf8f74	-0.085722834
62	0x3db3fd25	0.08788518
63	0xbc6c37de	-0.014417617
64	0xbcfcc071	-0.030853482
65	0xbcf76803	-0.030200964
66	0xbb2a072f	-0.0025944223
67	0xbeb08e14	-0.34483397
68	0xbc012f31	-0.007884786
69	0xbe0979a3	-0.13425307
70	0x3da87a94	0.08226505
71	0xbe25d946	-0.16196164
72	0x3d9145ca	0.07093389
73	0x3e617c3f	0.22020052
74	0xbd480d85	-0.04884102
75	0x3d7b881a	0.061409093
76	0x3ea18285	0.3154489
77	0xbca9cffd	-0.02072906
78	0x3d63a6c3	0.05557896
79	0xbbb326aa	-0.0054672556
80	0xbd5cdca3	-0.053921353
81	0x3da8f4f6	0.082498476
82	0x3e406882	0.18789867
83	0xbe112a67	-0.14176331
84	0x3cb3f3c2	0.021966819
85	0xbe488f7b	-0.19585983
86	0x3e3838e6	0.17990455
87	0x3e137ebb	0.14403813
88	0x3e4ea44c	0.20179862
89	0x3c9ce30f	0.019151239
90	0xbcafaaae	-0.021443691
91	0xbe9cbd21	-0.30613044
92	0x3dda1c60	0.10649943
93	0x3eb49d90	0.3527646
94	0x3df52ad7	0.11971062
95	0x3d91d952	0.07121529
96	0x3e4cc271	0.19996049
97	0xbe81e842	-0.2537251
98	0xbf060387	-0.5234913
99	0xbe0b2ccc	-0.13591307
100	0xbe3b6a69	-0.18302311
101	0xbedf08d4	-0.43561423
102	0x3e98ac8e	0.2981915
103	0x3ef55aa3	0.47920713
104	0x3eec0d3f	0.46103856
105	0xbf19429f	-0.5986728
106	0xbe600dd1	-0.2188027
107	0xbf148475	-0.58014613
108	0xbe532a56	-0.20621619
109	0xbe4933d8	-0.19648683
110	0xbde04d9e	-0.10952304
111	0xbe96b051	-0.29431394
112	0x3f0cab2b	0.5494868
113	0xbb9feee2	-0.004880772
114	0xbe96fa68	-0.2948792
115	0x3f02a05e	0.5102595
116	0xbf06db36	-0.5267824
117	0x3eaa87a0	0.333066
118	0x3e2b2cfa	0.16716376
119	0xbecdb7e2	-0.40179354
120	0xbf29c9a9	-0.66323334
121	0x3ecbc057	0.3979518
122	0x3e2a80e6	0.16650733
123	0xbd8f2017	-0.069885425
124	0xbe20e930	-0.15713954
125	0xbeb44c4f	-0.3521447
126	0x3ef3362c	0.47502267
127	0x3d8d6c2c	0.06905398
128	0xbdda0b1d	-0.10646651
129	0x3dce79ca	0.10081823
130	0x3e0c2624	0.13686424
131	0xbeb4a9d9	-0.35285833
132	0xbe3b1816	-0.18270907
133	0xbe1a9e62	-0.15099481
134	0x3df5cc9d	0.120019175
135	0xbc3fd4a5	-0.011708413
136	0x3e1b9a6b	0.15195625
137	0xbdd656e4	-0.10465792
138	0x3e02e1e8	0.12781489
139	0xbd1d5611	-0.038412157
140	0x3e2834c2	0.16426376
141	0x3e544917	0.20731007
142	0x3e41b868	0.18918002
143	0xbe010505	-0.12599571
144	0x3cca06b9	0.024661409
145	0x3e3e9865	0.18612821
146	0x3b0c4d6f	0.0021408459
147	0x3a99ecac	0.0011743507
148	0xbdf4d2f1	-0.119542964
149	0x3dfb18d3	0.12260594
150	0x3eb118ae	0.34589142
151	0x3e0b938c	0.13630503
152	0x3e388e80	0.1802311
153	0x3e63ba7a	0.22239104
154	0xbd319316	-0.043353163
155	0x3bcccb18	0.0062497966
156	0xbde36c57	-0.111046486
157	0x3eb29688	0.3488047
158	0x3e3e1279	0.18561734
159	0x3e547998	0.2074951
160	0x3d18402a	0.037170567
161	0x3d9bb943	0.07603695
162	0xbd44710e	-0.04795938
163	0xbe8584ae	-0.2607779
164	0xbe2e12da	-0.16999379
165	0x3d54551d	0.051838983
166	0x3e414948	0.18875611
167	0x3e40f816	0.18844637
168	0xbd229fe1	-0.039703254
169	0xbc580970	-0.013185844
170	0xbe2193e5	-0.15779074
171	0xbdbb915a	-0.09158583
172	0x3df5871f	0.11988663
173	0x3df63f65	0.1202381
174	0x3e607643	0.21920113
175	0x3c972c8e	0.018453863
176	0x3c832952	0.016010914
177	0xbc479964	-0.012182567
178	0x3d946503	0.07245829
179	0x3e0d2d15	0.13786729
180	0xbe18ff9a	-0.14941254
181	0x3d35ad3f	0.044354673
182	0x3e3326a7	0.17495213
183	0x3e02ab4b	0.12760656
184	0xbdb9bc17	-0.090690784
185	0xbd0fc1fe	-0.035097115
186	0x3cf41dd4	0.02979938
187	0xbe4347d0	-0.19070363
188	0xb933e891	-0.00017157408
189	0x3e66da81	0.2254429
190	0x3d540e12	0.05177123
191	0xbe0070e8	-0.1254307
192	0xbd87198d	-0.0659667
193	0xbde99a42	-0.114063755
194	0xbdc3aeb5	-0.09554807
195	0xbe3916cc	-0.18075103
196	0xbda453c9	-0.08023793
197	0xbe0e1c61	-0.13878013
198	0xbdbdeac2	-0.09273292
199	0x3e0712e9	0.13190807
200	0xbdae76ab	-0.08518728
201	0xbd67c8c4	-0.05658795
202	0x3c907a32	0.017636392
203	0x3c91b09b	0.017784407
204	0xbdf49954	-0.119433075
205	0xbea26615	-0.31718507
206	0x3e01be66	0.12670287
207	0x3cf3dfc5	0.029769788
208	0xbe0385a5	-0.1284395
209	0xbbb9bd4b	-0.0056683174
210	0xb954d9e1	-0.00020299062
211	0xbdf34957	-0.11879223
212	0x3d61cbaf	0.05512589
213	0x3e0a08b7	0.13479887
214	0xbe1c3741	-0.15255453
215	0x3ce43548	0.027857438
216	0x38ce99a3	9.8514625e-05
217	0xbd5c1ff3	-0.053741407
218	0xbd4caddf	-0.049970504
219	0xbe42721d	-0.18988843
220	0x3e18b53f	0.1491289
221	0x3e741d9b	0.23839419
222	0xbd8813cf	-0.06644403
223	0xbdde4485	-0.10852913
224	0x3c2222af	0.0098959645
225	0x3b086004	0.0020809183
226	0x3cf8f325	0.030389378
227	0xbec3e89c	-0.38263404
228	0x3e018bba	0.12650958
229	0xbdcb3ece	-0.099240884
230	0xbe0d07ef	-0.13772558
231	0x3e4d315d	0.20038362
232	0xbcf4b2e4	-0.029870458
233	0xbcffb7ff	-0.031215666
234	0x3df5ce3c	0.12002227
235	0x3e505fdb	0.20349066
236	0x3e48335e	0.19550845
237	0xbdde2b1e	-0.10848068
238	0x3ea4411b	0.32080922
239	0x3db950c6	0.090486094
240	0xbe030686	-0.12795457
241	0x3c8ac757	0.016940756
242	0xbca72cd4	-0.020407118
243	0x3dbb20e6	0.09137134
244	0x3c10ad2e	0.008830352
245	0xbd66fba4	-0.056392327
246	0x3e432486	0.19056901
247	0x3d4d87d8	0.05017838
248	0x3e875787	0.26433966
249	0xbbfacd08	-0.007653836
250	0xbc26f94e	-0.010191275
251	0xbeab0f48	-0.33410096
252	0xbd025c66	-0.0318264
253	0x3ec294b2	0.3800407
254	0x3e4c1539	0.19929971
255	0xbd143a99	-0.036188696

lstm.bias_ih_l1 f4 [128]
0	0x3dd2bd5c	0.10290024
1	0xbd1f69f2	-0.038919397
2	0xbd8b1ac1	-0.06792212
3	0x3eb08c96	0.3448226
4	0xbdb1955c	-0.08671066
5	0x3e0dce6d	0.13848276
6	0x3d4323ab	0.047641438
7	0xbc0932b9	-0.00837391
8	0x3e2515f2	0.16121653
9	0x3e21b085	0.15789993
10	0x3ddd093d	0.10792778
11	0x3e311805	0.17294319
12	0xbd08e20b	-0.033418696
13	0xbcb38b72	-0.021917079
14	0x3e2bad18	0.16765249
15	0x3e0cff0b	0.13769166
16	0x3e1c064d	0.15236779
17	0x3e8a3f45	0.27001396
18	0xbdd7f656	-0.10545032
19	0xbe4a27d5	-0.19741757
20	0xbcaee148	-0.021347657
21	0x3b3cd9d5	0.0028816361
22	0xbd8e2aca	-0.06941755
23	0xbdb70fba	-0.089385465
24	0x3eb0e7ec	0.34551942
25	0xbdaac557	-0.08338421
26	0x3e1609cd	0.14652176
27	0x3bbdb94f	0.005789913
28	0x3dfff8b2	0.12498607
29	0x3dfcbb83	0.123404525
30	0xbcbc28d5	-0.022968689
31	0x3e1c9e7b	0.1529483
32	0xbe3680dc	-0.17822593
33	0xbe07127b	-0.13190643
34	0xbc9b1189	-0.01892926
35	0xbe1492a1	-0.1450906
36	0xbe37d6cb	-0.17953031
37	0xbe26477f	-0.16238211
38	0xbe2fc870	-0.17166305
39	0xbbd6c401	-0.006554127
40	0x3de0f804	0.10984805
41	0xbe0d0a73	-0.13773517
42	0x3dfb0f49	0.12258775
43	0xbde561bd	-0.11200283
44	0x3d62423a	0.05523894
45	0xbe54c2c9	-0.2077743
46	0x3d377d58	0.04479727
47	0xbe5cb895	-0.21554787
48	0xbe469233	-0.19391708
49	0x3ca03bc5	0.01955975
50	0xbe448203	-0.1919022
51	0x3e0ded1c	0.13859981
52	0xbd6590e0	-0.056046367
53	0x3dd5aa2e	0.1043285
54	0x3ce264c3	0.027635938
55	0xbd52667d	-0.05136727
56	0xbc54b875	-0.012983431
57	0x3d80889d	0.06276057
58	0xbcd2a9e6	-0.02571578
59	0x3c06a014	0.008216877
60	0x3de38d3a	0.11110921
61	0xbe1586c8	-0.14602196
62	0xbd3122fb	-0.04324625
63	0x3d96ae12	0.0735742
64	0x3de10bf6	0.109886095
65	0xbe1cc323	-0.15308814
66	0xbbfb82c1	-0.007675499
67	0xbd8fb018	-0.07016009
68	0xbc28c72a	-0.010301391
69	0xbe0de30a	-0.1385614
70	0x3d70e609	0.05881313
71	0xbc580a4a	-0.013186047
72	0x3dbe2f7a	0.09286399
73	0x3e208656	0.15676245
74	0x3e2b3ebb	0.16723149
75	0xbc97992f	-0.01850566
76	0x3e3486a1	0.17629482
77	0xbc872087	-0.016495002
78	0x3dc0bed9	0.09411401
79	0xbdb7c5a8	-0.08973247
80	0x3d3f83fb	0.046756726
81	0x3db42c5a	0.08797522
82	0x3c92dc19	0.017927216
83	0x3e0cc5e2	0.13747361
84	0xbdb6085d	-0.08888314
85	0x3d3b0337	0.045657363
86	0xbd4f261f	-0.050573464
87	0xbda082e5	-0.07837466
88	0x3cf849b7	0.030308587
89	0xbd0d50b3	-0.03450079
90	0x3baf119b	0.005342675
91	0xbd9b7257	-0.07590168
92	0xbe178ece	-0.1480057
93	0xbc58dbac	-0.013235968
94	0x3df8ae62	0.12142636
95	0xbb9bffd3	-0.004760721
96	0x3e1c166b	0.15242927
97	0x3e0177da	0.12643376
98	0xbe0c914c	-0.13727301
99	0x3e9ed8df	0.31024835
100	0xbdb8ccf7	-0.09023469
101	0x3e3e4f0f	0.18584846
102	0x3e19e7e4	0.15029866
103	0xbd6e334d	-0.058154393
104	0xbe13e6a2	-0.14443448
105	0xbd9d89b3	-0.0769228
106	0x3d80a584	0.062815696
107	0x3e34e7dc	0.17666572
108	0xbdfc868f	-0.123303525
109	0xbe6e2139	-0.23254861
110	0x3e7bc995	0.24588616
111	0x3e11d20a	0.1424028
112	0x3d5723b2	0.052524276
113	0x3e374784	0.17898375
114	0x3dd869f7	0.10567086
115	0x3d774257	0.060366
116	0x3deeaa40	0.11653566
117	0xbdda35d3	-0.106547974
118	0x3d389d62	0.045071967
119	0xbe13ed15	-0.14445908
120	0x3dbbfa74	0.091786295
121	0xbdf74f98	-0.12075728
122	0x3e22f17e	0.15912434
123	0xbd2aac44	-0.04166819
124	0xbdd9222c	-0.10602221
125	0x3ed727fe	0.420227
126	0x3e21d145	0.15802486
127	0x3e0be434	0.13661271

lstm.bias_hh_l1 f4 [128]
0	0x3ea6349a	0.32462007
1	0xbd797a65	-0.06090774
2	0x3d4eea0c	0.050516173
3	0x3e4d7608	0.20064557
4	0x3d222688	0.039587528
5	0x3e5f8e9f	0.2183175
6	0x3c8a32f8	0.016870007
7	0x3de1f988	0.110339224
8	0x3e1234bb	0.14277928
9	0xbd28abc7	-0.041179445
10	0xbe0dce3c	-0.13848203
11	0x3e6789f0	0.22611213
12	0x3d2fc856	0.042915665
13	0xbe04acac	-0.12956494
14	0x3e4af399	0.19819488
15	0x3da14ec5	0.07876352
16	0x3c8fcc7d	0.017553562
17	0x3ce4ca58	0.027928516
18	0xbe2a5482	-0.166338
19	0xbe03df1e	-0.12878081
20	0x3c4ac096	0.012375018
21	0x3cb8244b	0.022478243
22	0x3d695f17	0.05697545
23	0x3cb08b4b	0.021550795
24	0x3e6b2eef	0.22967122
25	0x3d71ac42	0.05900217
26	0x3df89441	0.12137652
27	0x3e348203	0.1762772
28	0x3e1b67d4	0.15176326
29	0x3e8a3792	0.26995522
30	0x3da246ff	0.07923698
31	0x3df98969	0.12184412
32	0xbd7a2c6b	-0.061077517
33	0x3dcb5190	0.09927666
34	0x3cfb0e50	0.030646473
35	0xbe436fcf	-0.1908562
36	0x3d96ecaf	0.073693626
37	0xbd504430	-0.05084628
38	0x3a9ba368	0.001187426
39	0x3e0726cc	0.13198394
40	0xbe1cbc72	-0.15306261
41	0xbe37678c	-0.17910594
42	0xbdcd8782	-0.10035612
43	0xbdd91a79	-0.106007524
44	0xbe4fb268	-0.202829
45	0xbd0bd77a	-0.03414104
46	0xbd900d89	-0.070338316
47	0xbe0aea4a	-0.13565937
48	0x3d8ee43f	0.06977128
49	0x3dace417	0.08441942
50	0x3db712e4	0.0893915
51	0x3d591379	0.052997086
52	0xbe32885c	-0.1743483
53	0x3d2ed79e	0.042686097
54	0x3e41e70a	0.1893579
55	0xbddb303e	-0.10702561
56	0x3e19954d	0.1499836
57	0x3e015027	0.12628232
58	0x3db6abab	0.08919462
59	0x3e215ed7	0.15758835
60	0x3c27c267	0.01023922
61	0x3ddb50f0	0.10708797
62	0x3d839b3f	0.06426095
63	0x3d0b7c5b	0.03405414
64	0xbe0bb103	-0.13641743
65	0x3d262d9e	0.040570848
66	0xbd9a531f	-0.07535385
67	0x3df9a889	0.12190349
68	0xbdcd41ab	-0.10022291
69	0xbdfc6c20	-0.12325311
70	0x3e0428dc	0.12906212
71	0x3e584031	0.21118237
72	0x3dbae602	0.09125902
73	0xbe199e3c	-0.15001768
74	0xbe2c2814	-0.16812164
75	0x3e091cd9	0.13389911
76	0x3d75473e	0.059882395
77	0x3d45f560	0.04832971
78	0xbd2b051d	-0.041752923
79	0xbcbe2cbd	-0.023214692
80	0x3bf05ab7	0.007335033
81	0x3e25f261	0.16205741
82	0xbd3025b3	-0.043004703
83	0x3dfa5ef6	0.122251436
84	0xbd478402	-0.048709877
85	0x3def26db	0.11677333
86	0x3e2c46c7	0.16823874
87	0xbdf3a39f	-0.118964426
88	0xbb2315db	-0.0024884853
89	0x3e19490c	0.14969271
90	0xbdd2a46b	-0.102852665
91	0xbe0d424f	-0.13794826
92	0x3e142061	0.14465477
93	0x3df14f2b	0.11782678
94	0x3e316c0d	0.17326374
95	0x3e03c40e	0.12867758
96	0x3e306961	0.17227699
97	0x3e319415	0.17341645
98	0xbd3c9b8a	-0.04604677
99	0x3ec74796	0.38921803
100	0x3dce42cb	0.100713335
101	0x3e1cb693	0.15304022
102	0xbddd308d	-0.10800276
103	0xbd861555	-0.065470375
104	0xbe21b691	-0.157923
105	0x3e1622c8	0.14661705
106	0x3dbb19e5	0.09135798
107	0x3e04ce54	0.12969333
108	0x3e36f79e	0.17867896
109	0x3d32098d	0.04346614
110	0x3d52756e	0.05138152
111	0x3de403e8	0.111335576
112	0xbdd77fc5	-0.10522417
113	0x3d5a7f4b	0.053344052
114	0x3d316257	0.043306675
115	0x3db73d6d	0.08947263
116	0x3de6c910	0.112688184
117	0x3d9dff1e	0.07714675
118	0xbd6de994	-0.058084086
119	0x3e1ce7eb	0.15322845
120	0x3eb4bba2	0.35299402
121	0x3d8913b4	0.06693211
122	0xbc04ea6c	-0.008112531
123	0x3e294c25	0.16532953
124	0x3daa0fea	0.083038166
125	0x3ea7341a	0.32656938
126	0xbd2eb660	-0.042654395
127	0x3c895430	0.016763777

regression_head.weight f4 [1, 32]
0	0x3e11d494	0.14241248
1	0xbe485cec	-0.19566697
2	0xbe4c0809	-0.1992494
3	0x3ea31c25	0.3185741
4	0xbe20f7c6	-0.15719518
5	0xbe28bf2e	-0.1647918
6	0x3da97325	0.08273915
7	0x3e1fc7ce	0.15603563
8	0x3e23c3a8	0.15992606
9	0xbd94d462	-0.07267071
10	0xbe465101	-0.19366838
11	0xbe376d92	-0.17912892
12	0xbe25d407	-0.16194163
13	0x3cafcd67	0.021460248
14	0xbd6cae76	-0.057783566
15	0xbdd0f9ef	-0.10203921
16	0x3e408790	0.18801713
17	0xbdbfd469	-0.09366686
18	0xbdcdea5a	-0.10054465
19	0x3e0ca54b	0.1373493
20	0xbe0536b7	-0.13009153
21	0x3e4c5ed4	0.19958049
22	0xbd301ce6	-0.04299631
23	0xbe728f80	-0.23687553
24	0xbe24e9a4	-0.16104752
25	0x3e13a301	0.1441765
26	0x3d0b7f8f	0.034057196
27	0xbca4e5f2	-0.020129178
28	0xbc2f5d77	-0.010703436
29	0xbe897cc6	-0.26853007
30	0x3e4c200b	0.19934098
31	0xbd009a38	-0.031397074

classification_head.weight f4 [1, 32]
0	0x3dc0ebae	0.09419952
1	0x3e221ee4	0.15832096
2	0xbcb230cd	-0.021751786
3	0x3b231c75	0.0024888788
4	0x3c5d273f	0.0134981265
5	0xbda94a25	-0.08266095
6	0x3e0f6f4c	0.140073
7	0x3ced81db	0.028992584
8	0xbd7cd147	-0.06172302
9	0xbe3ced4a	-0.18449894
10	0x3e19b268	0.15009463
11	0xbdcbeb83	-0.0995703
12	0x3e1d9ade	0.15391108
13	0x3e14251e	0.14467284
14	0xbe4b7952	-0.19870499
15	0x3dd88aef	0.105733745
16	0xbc219386	-0.0098618325
17	0xbe84cbef	-0.2593684
18	0x3e503dbd	0.20336051
19	0xbe19e987	-0.1503049
20	0x3db65c18	0.08904284
21	0x3cac3493	0.021021163
22	0x3e0fb1f3	0.14032726
23	0xbd13ad60	-0.036054015
24	0xbe88cb2f	-0.26717517
25	0x3e3d1d74	0.18468267
26	0x3e97d489	0.2965434
27	0xbe685a06	-0.22690591
28	0xbe4ef6db	-0.20211355
29	0xbd42e2b3	-0.04757948
30	0x3dca7c41	0.09886981
31	0xbdd63a7a	-0.10460372
